seq2seq.pt (torch, 620863 bytes, 18 tensors)

char_emb.weight f4 [57, 100]
-0.044169337 -0.4906993 -0.021261718 -0.34309325 -0.8481287 -1.4469708 0.8172371 1.9032631
1.3541363 0.45640215 -2.5101645 -0.98916507 -1.5646676 0.9941111 0.8294846 0.2077458
-0.14495687 -1.9298242 -1.0182321 0.0033550053 -0.67885655 -0.9517385 -0.9833505 1.159424
0.21921587 2.090601 0.45102733 0.14354382 -1.0836817 0.07239788 0.11677231 -0.096476614
0.3844944 0.37448406 -0.53491527 0.9451319 1.3644929 -0.39487615 -1.5097913 -0.5622877
1.2124618 -0.8445383 1.0504261 -0.20190372 -0.39698058 -0.420225 -0.105315074 -0.4798799
-0.45865044 -0.8750148 -0.52792317 0.65986305 -1.1460528 0.35884213 -1.0209364 -0.5087733
-0.47894904 1.2914944 -0.035454977 -2.2368832 -1.3059936 0.33720142 2.1113088 -0.85760087
-0.8222248 -0.7242112 -0.56345075 -1.0248618 -0.5584676 1.1717771 0.7981364 -0.30939043
1.2753003 -0.096412994 -1.0303 -1.911117 0.42189538 1.0735587 -1.0423911 -0.868432
-0.89540136 2.0233216 -0.036501694 -1.1780893 -0.8555682 -0.4141201 0.42165634 0.09230464
-0.5019016 1.5880172 -0.2146234 0.71170956 0.18680565 -2.4413111 0.18039039 -0.9198755
-1.6727597 -0.01951012 -0.6875464 0.27599075 -1.2913076 0.21033224 0.9696858 0.27208182
-1.9600708 1.1210256 -0.6337858 0.477221 0.15196684 -0.7602625 -1.138727 -0.3377785
-0.13039356 0.21022046 -0.09140092 -0.7040831 -0.55566156 -0.61332375 -1.7977272 -0.19061992
0.7989873 -1.3294284 -0.08002559 -1.6081281 0.240078 0.12317818 -0.61008364 -0.6370554
-0.1631491 0.30786052 0.37815163 0.023761986 -0.44081005 2.4113197 -1.2226036 -0.40977988
-0.77692914 1.6902758 1.1009521 -0.050216936 0.53402877 0.04209622 0.8437941 2.1491163
-0.24439444 2.060522 -0.7402974 0.75459516 -0.12788445 -1.126299 -0.49993268 -0.8507697
0.9006477 1.2318711 -1.3728429 0.034320395 -0.78013873 0.87991303 1.0573604 -0.24099669
1.0336949 0.32650366 -1.1480311 1.3530234 -1.2457868 -0.5756654 -1.1507546 -0.3464385
-0.8735178 1.8868815 0.76340896 0.19803575 -0.22813855 -0.0075829616 -0.044007763 2.8190088
2.2883399 -0.6915897 -1.0364786 0.16295266 -1.8266952 -0.70506674 1.2399772 0.9238756
-0.12008153 -1.2887572 0.9571467 0.9272318 1.2162727 1.0724372 1.1523775 2.2499964
0.7789714 -0.3976193 -2.1101437 -0.5972512 -0.38759637 1.4471761 1.2798051 -0.10894188
0.0 0.0 0.0 0.0 0.0 0.0 0.0 0.0
0.0 0.0 0.0 0.0 0.0 0.0 0.0 0.0
0.0 0.0 0.0 0.0 0.0 0.0 0.0 0.0
0.0 0.0 0.0 0.0 0.0 0.0 0.0 0.0
0.0 0.0 0.0 0.0 0.0 0.0 0.0 0.0
0.0 0.0 0.0 0.0 0.0 0.0 0.0 0.0
0.0 0.0 0.0 0.0 0.0 0.0 0.0 0.0
00000000: e8ea 34bd f03c fbbe 0e2d aebc eba9 afbe
00000010: f61e 59bf 5736 b9bf 7336 513f 209e f33f
00000020: 5754 ad3f 8bad e93e 89a6 20c0 ec39 7dbf
00000030: 0747 c8bf 117e 7e3f 1a59 543f 51bb 543e
00000040: 936f 14be 7b04 f7bf 6e55 82bf a6df 5b3b
00000050: 8bc9 2dbf 22a5 73bf dcbc 7bbf 0168 943f
00000060: 207a 603e 68cc 0540 0eed e63e 27fd 123e
00000070: 15b6 8abf 5745 943d 5226 ef3d 8895 c5bd
00000080: 73dc c43e 60bc bf3e 35f0 08bf 2af4 713f
00000090: b4a7 ae3f 352d cabe d740 c1bf 16f2 0fbf
000000a0: f331 9b3f a933 58bf 5d74 863f d9bf 4ebe
000000b0: 0a41 cbbe bb27 d7be 6eaf d7bd d1b2 f5be
000000c0: 3bd4 eabe f800 60bf f925 07bf c9ec 283f
000000d0: dcb1 92bf 28ba b73e 0bae 82bf f83e 02bf
000000e0: cf38 f5be b04f a53f 3d39 11bd 1829 0fc0
000000f0: cc2a a7bf aaa5 ac3e af1f 0740 bb8b 5bbf
00000100: 537d 52bf e865 39bf 4f3e 10bf ac2e 83bf
00000110: bcf7 0ebf cbfc 953f ab52 4c3f 6c68 9ebe
00000120: 0a3d a33f 2d74 c5bd dfe0 83bf 7b9f f4bf
00000130: ac02 d83e 5f6a 893f 126d 85bf 8f51 5ebf
00000140: 0639 65bf 1a7e 0140 cd82 15bd a1cb 96bf
00000150: 8406 5bbf 8d07 d4be 57e3 d73e 370a bd3d
00000160: a07c 00bf 2644 cb3f 3dc6 5bbe 9932 363f
00000170: fb49 3f3e 713e 1cc0 42b8 383e f67c 6bbf
00000180: fd1c d6bf b0d3 9fbc 0a03 30bf a94e 8d3e
00000190: 9149 a5bf 5661 573e 543d 783f 4f4e 8b3e
000001a0: 9ae3 fabf c47d 8f3f c93f 22bf 5056 f43e
000001b0: 329d 1b3e 90a0 42bf cec1 91bf 4ef1 acbe
000001c0: e485 05be 0844 573e 6830 bbbd ca3e 34bf
000001d0: d63f 0ebf c902 1dbf ed1b e6bf de31 43be
000001e0: 6f8a 4c3f b62a aabf 75e4 a3bd 24d7 cdbf
000001f0: 02d7 753e d744 fc3d 712e 1cbf 1016 23bf
00000200: 8f10 27be e59f 9d3e 179d c13e 7fa8 c23c
00000210: dbb1 e1be 1053 1a40 467e 9cbf abce d1be
00000220: d4e4 46bf f55a d83f 00ec 8c3f 46b0 4dbd
00000230: 1cb6 083f 166d 2c3d e402 583f 1f8b 0940
00000240: 8942 7abe 98df 0340 2184 3dbf 262d 413f
00000250: 24f4 02be 912a 90bf 2df7 ffbe 0bcc 59bf
00000260: d990 663f f4ad 9d3f 51b9 afbf 8b93 0c3d
00000270: 2cb7 47bf fb41 613f 9657 873f d6c7 76be
00000280: 1d50 843f 7d2b a73e aff2 92bf df2f ad3f
00000290: f175 9fbf cf5e 13bf ed4b 93bf 6360 b1be
000002a0: dd9e 5fbf 5585 f13f c56e 433f e2c9 4a3e
000002b0: 279d 69be 7e7a f8bb 7c41 34bd a46a 3440
000002c0: 2974 1240 060c 31bf 55ab 84bf 10dd 263e
000002d0: 26d1 e9bf 417f 34bf 93b7 9e3f 1c83 6c3f
000002e0: 4eed f5bd fff5 a4bf 9107 753f 105f 6d3f
000002f0: d3ae 9b3f 9f45 893f 1b81 933f f1ff 0f40
00000300: ab6a 473f c294 cbbe 980c 07c0 74e5 18bf
00000310: 0873 c6be 113d b93f a7d0 a33f ec1c dfbd
00000320: 0000 0000 0000 0000 0000 0000 0000 0000
00000330: 0000 0000 0000 0000 0000 0000 0000 0000
00000340: 0000 0000 0000 0000 0000 0000 0000 0000
00000350: 0000 0000 0000 0000 0000 0000 0000 0000
00000360: 0000 0000 0000 0000 0000 0000 0000 0000
00000370: 0000 0000 0000 0000 0000 0000 0000 0000
00000380: 0000 0000 0000 0000 0000 0000 0000 0000
00000390: 0000 0000 0000 0000 0000 0000 0000 0000
000003a0: 0000 0000 0000 0000 0000 0000 0000 0000
000003b0: 0000 0000 0000 0000 0000 0000 0000 0000
000003c0: 0000 0000 0000 0000 0000 0000 0000 0000
000003d0: 0000 0000 0000 0000 0000 0000 0000 0000
000003e0: 0000 0000 0000 0000 0000 0000 0000 0000
000003f0: 0000 0000 0000 0000 0000 0000 0000 0000

encoder.weight_ih_l0 f4 [64, 100]
-0.19802032 0.39305994 -0.08753345 -0.059195522 -0.20412578 -0.2309808 -0.08851275 0.12778142
0.25522345 -0.24133705 -0.10904667 -0.12850359 -0.27351016 0.097737245 0.14161725 -0.06468658
0.26548454 -0.13178264 -0.18607165 0.07951936 -0.07383525 -0.3115485 -0.086277135 0.10439465
-0.013688707 -0.3316514 -0.043423988 0.14353335 -0.12109061 -0.049652357 -0.09449266 0.23625706
-0.5541583 0.0052175038 0.030419199 -0.2409778 -0.46922958 0.44741386 -0.055759974 0.0030666937
0.02022957 0.153739 -0.18458849 -0.32046497 0.17159805 0.20645618 0.036081593 0.21267076
0.0019952264 -0.41407573 -0.15985483 0.075642414 -0.12756363 -0.14628989 0.17333788 -0.29631996
0.010608429 -0.25711614 0.056525547 0.097495176 -0.23986135 0.44521865 0.18459882 0.19814996
-0.31991586 0.23931238 0.15010625 0.3384685 0.0358049 -0.12577613 0.020646822 -0.30113468
0.020778485 -0.46138367 0.10164096 0.10715465 -0.16175218 4.4274813e-05 -0.1688675 -0.08593531
0.26227182 -0.16538545 -0.0023596047 0.018423077 -0.111979805 -0.18186098 0.011545668 0.34079623
-0.12532121 0.09889275 -0.37567744 -0.08468658 -0.29317194 -0.35049775 -0.18372722 -0.18918326
0.046082504 0.32954952 0.13909581 -0.0038365154 0.0116991745 0.50675416 -0.10432357 -0.21480143
-0.13726394 -0.19164945 -0.19543965 -0.12846918 0.12290519 0.1005442 0.12417414 -0.08449319
0.23772871 0.13284512 0.19035503 -0.24521838 -0.26895288 0.12788543 -0.3012622 0.041177046
-0.21591043 -0.11033813 0.05830171 -0.32566857 -0.01142814 0.18040924 0.25618124 -0.23243017
0.09103843 -0.019164264 0.33190718 -0.1383578 0.25881884 0.009208599 -0.5627221 -0.30357125
-0.048277013 0.32791016 0.12001702 0.25318995 0.16857551 0.36017776 -0.095757976 -0.053694293
0.2754052 -0.074981764 0.101938196 -0.17736563 0.2118064 0.035174593 0.12586957 0.41434205
0.11814021 -0.038106125 -0.041678622 -0.34898934 0.033689722 0.012444822 -0.017275605 -0.019408364
-0.020259125 0.12833919 -0.23518488 -0.47664297 -0.08567998 0.17391731 0.26687208 -0.019065702
0.07047363 0.0102808 -0.4168661 -0.074431784 -0.07690583 0.015447282 -0.08616128 -0.2356961
-0.20997332 0.15865603 0.04252951 -0.012351447 0.037327714 -0.22926307 0.09181956 0.0054639257
-0.11478999 -0.03853313 0.09341728 0.40427062 -0.12369954 -0.24867079 0.040540013 0.03431898
-0.013082321 -0.2293071 0.3344902 -0.27284804 0.025360065 -0.19426268 -0.042582937 0.15118314
0.023588583 -0.030947927 -0.051498268 0.041846417 0.3896784 0.11028445 -0.060529374 -0.12275502
0.16123931 0.47549868 0.019395998 0.29459113 -0.16173556 0.10571721 -0.09183356 0.028094742
0.335565 -0.25909966 0.18731411 0.098630734 -0.1384726 -0.01898765 -0.13097155 0.14815272
-0.1809677 0.001980598 0.0555276 0.021380711 -0.17044221 -0.01409762 -0.08665686 -0.33577225
-0.2221103 -0.30372137 -0.23399673 -0.13381311 -0.28695717 0.018407617 -0.0667472 -0.038850028
0.2460351 0.086541705 0.14683223 -0.2696934 -0.018559502 -0.32529643 0.33740616 0.08299045
0.17908926 0.06640076 0.17179424 0.28577545 0.043690227 -0.23298483 -0.15742335 -0.2772193
00000000: d7c5 4abe 273f c93e bd44 b3bd 0177 72bd
00000010: 5906 51be 3b86 6cbe 2c46 b5bd 22d9 023e
00000020: a6ac 823e 0f21 77be dc53 dfbd 7296 03be
00000030: 8609 8cbe 772a c83d 1d04 113e 667a 84bd
00000040: 97ed 873e 07f2 06be 9189 3ebe 0cdb a23d
00000050: f036 97bd 4983 9fbe 11b2 b0bd ddcc d53d
00000060: 9946 60bc 36ce a9be 5add 31bd 68fa 123e
00000070: 5bfe f7bd 4560 4bbd 5e85 c1bd 5fed 713e
00000080: 51dd 0dbf 98f7 aa3b af31 f93c e2c2 76be
00000090: dc3e f0be 6e13 e53e 9264 64bd 95fa 483b
000000a0: 7cb8 a53c c26d 1d3e c404 3dbe fc13 a4be
000000b0: 66b7 2f3e 4069 533e 4bca 133d 5dc6 593e
000000c0: 58c2 023b bc01 d4be fcb0 23be 69ea 9a3d
000000d0: 0aa0 02be 04cd 15be 7c7f 313e 40b7 97be
000000e0: face 2d3c baa4 83be 5587 673d 8dab c73d
000000f0: 379e 75be b3f3 e33e 7907 3d3e d3e7 4a3e
00000100: 03cc a3be 4e0e 753e 74b5 193e be4b ad3e
00000110: 29a8 123d 75cb 00be 8623 a93c 532e 9abe
00000120: a437 aa3c 7b3a ecbe 2329 d03d e673 db3d
00000130: 5da2 25be b8b3 3938 9aeb 2cbe dafe afbd
00000140: 7e48 863e ce5a 29be 99a3 1abb feeb 963c
00000150: ab55 e5bd c439 3abe 0b2a 3d3c d87c ae3e
00000160: 3454 00be 4888 ca3d cb58 c0be 2870 adbd
00000170: a21a 96be 7174 b3be fd22 3cbe 42b9 41be
00000180: 02c1 3c3d b7ba a83e 226f 0e3e 0c6e 7bbb
00000190: e5ad 3f3c a4ba 013f 99a7 d5bd e8f4 5bbe
000001a0: eb8e 0cbe c13f 44be 5521 48be 6d8d 03be
000001b0: b7b5 fb3d 1eea cd3d 034f fe3d c40a adbd
000001c0: 286f 733e 8d08 083e 6eec 423e 871a 7bbe
000001d0: 31b4 89be 66f4 023e 0a3f 9abe 43a9 283d
000001e0: a017 5dbe f5f8 e1bd c6cd 6e3d 08be a6be
000001f0: 183d 3bbc 33bd 383e 302a 833e 2d02 6ebe
00000200: 5b72 ba3d 60fe 9cbc bdef a93e abad 0dbe
00000210: e783 843e aadf 163c 8e0e 10bf b16d 9bbe
00000220: 1ebe 45bd d7e3 a73e 7ccb f53d 1da2 813e
00000230: 0f9f 2c3e 3869 b83e c21c c4bd 8cee 5bbd
00000240: e901 8d3e 0a90 99bd f9c4 d03d 569f 35be
00000250: c7e3 583e 3c13 103d f4e3 003e a424 d43e
00000260: 7ff3 f13d 2b15 1cbd 34b7 2abd bbae b2be
00000270: 3cfe 093d 5ee5 4b3c 9285 8dbc 4afe 9ebc
00000280: 77f6 a5bc 596b 033e 4ed4 70be 8c0a f4be
00000290: fc78 afbd 6117 323e 75a3 883e ad2f 9cbc
000002a0: 7b54 903d cd70 283c 796f d5be b16f 98bd
000002b0: ce80 9dbd 9916 7d3c 5375 b0bd 525a 71be
000002c0: 3f03 57be ba76 223e 6c33 2e3d b95d 4abc
000002d0: f2e4 183d f0c3 6abe e50b bc3d bb0a b33b
000002e0: 0417 ebbd ead4 1dbd 8f51 bf3d 8ffc ce3e
000002f0: 2f56 fdbd 8ea3 7ebe 490d 263d 0f92 0c3d
00000300: 3b57 56bc 7bcf 6abe 4d42 ab3e bdb2 8bbe
00000310: e9bf cf3c ccec 46be 726b 2ebd c1cf 1a3e
00000320: d83c c13c 8286 fdbc d9ef 52bd 2667 2b3d
00000330: ed83 c73e d0dc e13d a6ed 77bd fc66 fbbd
00000340: eb1b 253e 9074 f33e 5be4 9e3c a6d4 963e
00000350: 029e 25be 4482 d83d 3c13 bcbd f226 e63c
00000360: 2dcf ab3e b6a8 84be 45cf 3f3e e9fe c93d
00000370: c3cb 0dbe fd8b 9bbc 681d 06be 59b5 173e
00000380: 994f 39be eccc 013b e970 633d 9a26 af3c
00000390: 6788 2ebe b4f9 66bc 2779 b1bd 57ea abbe
000003a0: e270 63be 5e81 9bbe d79c 6fbe 4e06 09be
000003b0: 0dec 92be 92cb 963c c2b2 88bd 3521 1fbd
000003c0: a0f0 7b3e c73c b13d 305b 163e 4115 8abe
000003d0: 190a 98bc 418d a6be 80c0 ac3e e6f6 a93d
000003e0: 2d63 373e 1ffd 873d d4ea 2f3e 2951 923e
000003f0: 86f4 323d 9393 6ebe 9633 21be b0ef 8dbe

encoder.weight_hh_l0 f4 [64, 16]
-0.78205794 0.2100736 0.15836501 -0.982672 0.076982826 -0.6199782 -0.37955692 0.42302004
0.5607786 0.06220665 0.7474614 0.12776302 0.4431511 0.4072459 0.79325646 0.625538
0.097631514 0.40199512 -0.08857266 0.37504572 0.5026788 -0.45866475 0.12899098 0.6093288
0.6360197 0.1880191 -0.96280736 0.05480286 -0.3165694 0.11009696 -0.37000492 0.07988204
-0.66870093 0.62855756 -0.29946277 -0.018925568 0.3423277 -0.4645375 0.028178962 0.48930335
0.57818097 0.77154464 0.6090417 0.8540739 0.42204195 -0.24695466 -0.19088483 0.32221094
-0.21981697 0.19600338 0.23735392 0.5807943 0.28426066 -0.24385026 0.26430768 -0.31573185
-0.0049447236 0.32864922 -0.46999884 0.15458897 -0.27386597 0.15653512 -0.3146042 -0.21705544
-0.018161286 0.03124528 0.4689797 -0.6072974 0.691742 0.009433709 -0.7182247 -0.23108639
0.04145939 0.1642032 0.07136496 -0.25159314 0.7690233 0.030308394 0.41251218 0.30288854
-0.43193159 0.30633277 0.7149302 0.2257572 0.25588876 -0.92728037 0.07660679 0.38540256
0.2174701 0.1738634 -0.43997982 0.23037356 0.26887122 0.3067322 0.8977477 -0.31275707
-0.38356924 0.2976792 0.5568704 0.1733003 0.5687891 -0.8891072 1.0375905 -0.29982084
0.023783255 0.28423658 -0.2834763 0.16556203 0.85363907 0.1619096 -0.23918352 -0.46895564
-0.009719915 0.23046182 0.17770422 0.5804726 0.19183077 -0.7713424 0.15053678 -0.10374651
0.61190945 0.3723404 0.47719607 0.033824474 0.9221297 0.037214123 0.5993102 0.61234885
0.18541798 0.15566577 0.29059902 -0.22707821 0.530348 -0.7122145 -0.073609054 1.1012021
0.08721934 0.3658254 0.50336283 -0.36089274 -0.30498874 0.3065477 -0.7586864 -0.18092443
0.10155755 -0.12155041 -0.60218483 0.18567497 1.0725014 0.41248173 0.8492613 0.62469804
0.23498218 -0.06319501 0.65362555 -0.040915143 -0.1404141 0.39428583 -0.37624428 0.5508674
-0.16481966 0.09707872 -0.14408654 0.085772805 -0.19128495 -0.96407974 0.84583366 0.6611493
0.2555309 0.5579953 -0.06055311 1.170974 -0.29722744 0.5419406 0.17333893 -0.027710315
-0.19811763 -0.47765452 0.6336281 -0.56784767 0.57558984 -0.11985573 -0.49740928 -0.1791333
0.5583001 0.5947104 1.3119571 0.3845884 0.6640104 -0.7090227 -0.22171244 0.076791495
-0.014778456 0.17708986 -0.55965704 0.5420186 -0.33090705 0.32631102 0.1472055 0.6932006
0.27246392 -0.26166132 -0.6325887 0.06624797 -0.55516225 -0.15764424 0.13404897 -0.16633065
-0.46805358 0.6293561 -0.19293146 -0.0011692501 0.11857747 0.26541772 0.046034627 0.27258077
-0.047225162 -0.06324789 1.0428346 0.5344622 0.33729938 -1.0234174 0.8433951 0.11778605
-0.6229059 0.064694256 -0.23149091 0.9295271 0.21530643 0.11012884 0.30445018 0.3550715
0.41028944 0.24490339 -0.7095802 0.47502977 0.18113458 -0.23643747 0.21622612 0.11856714
-0.16892138 -0.15854782 0.118009 -0.026057519 0.2658003 -0.12946326 0.08531649 0.50165397
-0.0004397916 0.10206009 -0.15181042 -0.24295817 0.18451206 -1.1154377 0.6245638 -0.4880098
00000000: f334 48bf 891d 573e 702a 223e 6490 7bbf
00000010: 2ca9 9d3d e4b6 1ebf 4955 c2be 1596 d83e
00000020: 308f 0f3f 66cc 7e3d a159 3f3f 4fd4 023e
00000030: b3e4 e23e 8982 d03e db12 4b3f 4223 203f
00000040: 08f3 c73d 4ed2 cd3e 9565 b5bd fe05 c03e
00000050: 8faf 003f 1bd6 eabe 3616 043e f9fc 1b3f
00000060: 30d2 223f 1488 403e 8b7a 76bf f778 603d
00000070: 6215 a2be 847a e13d 4971 bdbe 3299 a33d
00000080: fc2f 2bbf 26e9 203f 2f53 99be cb09 9bbc
00000090: 9445 af3e dcd7 edbe 91d7 e63c f885 fa3e
000000a0: ab03 143f f383 453f 28ea 1b3f 96a4 5a3f
000000b0: e215 d83e afe1 7cbe 5077 43be d5f8 a43e
000000c0: b317 61be 1cb5 483e e80c 733e efae 143f
000000d0: 9d8a 913e e2b3 79be 5653 873e 9ba7 a1be
000000e0: 5907 a2bb b644 a83e b0a3 f0be 924c 1e3e
000000f0: 2938 8cbe be4a 203e cd13 a1be c843 5ebe
00000100: fac6 94bc 1af6 ff3c 1b1e f03e d877 1bbf
00000110: 0116 313f d88f 1a3c 93dd 37bf e9a1 6cbe
00000120: 52d1 293d e224 283e cb27 923d d1d0 80be
00000130: b6de 443f 4f49 f83c cc34 d33e 3514 9b3e
00000140: 2326 ddbe a6d7 9c3e aa05 373f e52c 673e
00000150: da03 833e 3f62 6dbf 05e4 9c3d 7c53 c53e
00000160: 7bb0 5e3e 3f09 323e 0945 e1be 0ce7 6b3e
00000170: 7da9 893e 010c 9d3e cbd2 653f b221 a0be
00000180: 3063 c4be 6869 983e 0f8f 0e3f a275 313e
00000190: 2a9c 113f 889c 63bf c4cf 843f 1e82 99be
000001a0: 1ad5 c23c 7587 913e ce23 91be 1889 293e
000001b0: 1788 5a3f a1cb 253e 86ec 74be f41a f0be
000001c0: 4740 1fbc 2ffe 6b3e 18f8 353e da99 143f
000001d0: 496f 443e b276 45bf 5026 1a3e 0d79 d4bd
000001e0: 19a6 1c3f 67a3 be3e 0b53 f43e 888b 0a3d
000001f0: b110 6c3f d66d 183d 656c 193f e5c2 1c3f
00000200: 36de 3d3e d966 1f3e 65c9 943e 3187 68be
00000210: e3c4 073f b153 36bf 58c0 96bd 31f4 8c3f
00000220: 0ea0 b23d 784d bb3e 63dc 003f efc6 b8be
00000230: 7c27 9cbe d2f3 9c3e 4639 42bf 4144 39be
00000240: 68fd cf3d 6cef f8bd c928 1abf 9421 3e3e
00000250: ba47 893f ce30 d33e 3069 593f 36ec 1f3f
00000260: 2b9f 703e 636c 81bd 0154 273f a396 27bd
00000270: b7c8 0fbe d5df c93e 17a3 c0be a505 0d3f
00000280: 7cc6 28be 35d1 c63d 6c8b 13be a7a9 af3d
00000290: 34e0 43be eecd 76bf 8e88 583f 1541 293f
000002a0: f2d4 823e c8d8 0e3f 8a06 78bd 7ae2 953f
000002b0: 322e 98be 9fbc 0a3f c37f 313e be00 e3bc
000002c0: 59df 4abe 228f f4be 7335 223f 775e 11bf
000002d0: db59 133f ec76 f5bd 6eac febe b86e 37be
000002e0: c1ec 0e3f f13e 183f 36ee a73f c5e8 c43e
000002f0: 96fc 293f 8382 35bf 9608 63be dc44 9d3d
00000300: 5621 72bc 0b57 353e af45 0fbf bbc1 0a3f
00000310: a66c a9be 3d12 a73e 0abd 163e 9875 313f
00000320: 6480 8b3e 79f8 85be 55f1 21bf 04ad 873d
00000330: 1d1f 0ebf 7e6d 21be 2244 093e 9552 2abe
00000340: b8a4 efbe 7b1d 213f d38f 45be 8641 99ba
00000350: bfd8 f23d d5e4 873e ce8e 3c3d b58f 8b3e
00000360: 2c6f 41bd 1c88 81bd 9b7b 853f 84d2 083f
00000370: 81b2 ac3e 57ff 82bf bee8 573f d039 f13d
00000380: c376 1fbf 6c7e 843d f40b 6dbe 7df5 6d3f
00000390: 4a79 5c3e 3b8b e13d e5e0 9b3e efcb b53e
000003a0: 7511 d23e f4c7 7a3e 0ca7 35bf 1a37 f33e
000003b0: 587b 393e aa1c 72be 616a 5d3e 54d3 f23d
000003c0: baf9 2cbe 5c5a 22be b4ae f13d 9476 d5bc
000003d0: fa16 883e 0492 04be 69ba ae3d 656c 003f
000003e0: d493 e6b9 e104 d13d 3174 1bbe 07ca 78be
000003f0: bbf0 3c3e aac6 8ebf 6ae3 1f3f 6cdc f9be

encoder.bias_ih_l0 f4 [64]
0.16873121 0.3986213 0.27306798 0.3781292 0.087910615 0.41804668 0.34252772 0.48409238
0.29384747 0.15934616 0.31289056 0.27292687 0.2701326 -0.07935442 0.05423986 0.17528857
0.23099543 0.10822371 0.3689917 -0.19060013 -0.08889936 -0.01873536 0.06977956 0.40745434
0.19126458 0.28457573 0.4068368 0.28780696 0.006739936 0.3014692 0.13736697 0.16421513
0.22620422 0.34734398 0.32181984 0.22072127 0.025148736 0.094979525 0.23716411 0.2538867
0.10019772 0.023647534 -0.19576114 0.20617203 0.26647183 -0.18082525 0.16693631 0.16584286
-0.018237814 0.13927157 0.54460055 0.45057964 0.345051 0.46677446 0.44076142 -0.022340903
0.12677541 0.18099809 0.33712608 0.1475584 0.5021897 0.18817289 0.14707828 0.27834275
00000000: e0c7 2c3e 1718 cc3e 91cf 8b3e 279a c13e
00000010: 7b0a b43d 370a d63e cb5f af3e f5da f73e
00000020: 2d73 963e a42b 233e 3133 a03e 12bd 8b3e
00000030: d24e 8a3e 9284 a2bd 9e2a 5e3d d97e 333e
00000040: 118a 6c3e 64a4 dd3d 7bec bc3e ae2c 43be
00000050: de10 b6bd e67a 99bc 96e8 8e3d db9d d03e
00000060: ddda 433e e9b3 913e ea4c d03e 6f5b 933e
00000070: aeda dc3b 2c5a 9a3e eda9 0c3e 0328 283e
00000080: 14a2 673e 12d7 b13e 92c5 a43e c204 623e
00000090: b904 ce3c a084 c23d 26db 723e 70fd 813e
000000a0: 7634 cd3d 79b8 c13c 9c75 48be c31e 533e
000000b0: ff6e 883e 412a 39be 5af1 2a3e b6d2 293e
000000c0: 7867 95bc 359d 0e3e f16a 0b3f 60b2 e63e
000000d0: 86aa b03e 10fd ee3e 7bab e13e 4504 b7bc
000000e0: 6ad1 013e 9057 393e ca9b ac3e 8d19 173e
000000f0: 818f 003f 65b0 403e b09b 163e f182 8e3e

encoder.bias_hh_l0 f4 [64]
0.37053648 0.08193539 0.47032332 0.5103573 0.18724199 0.2635506 0.47366658 0.5069298
0.20429017 0.1795135 0.4688139 0.057046138 0.44287333 0.31704524 0.39176214 0.43679342
0.17933841 0.19710857 0.13491336 -0.19229981 -0.011505856 0.0490737 0.070354626 0.07008308
0.17077556 0.33996996 0.41498092 0.06902239 0.24565305 0.22394155 0.18676333 -0.027401064
-0.18529205 0.17421721 0.34796134 0.08577499 0.34600335 -0.0054381588 0.31992874 -0.0029584465
0.31843448 0.018749485 -0.20757043 0.0021753798 0.12016863 -0.24081036 -0.12756416 0.012964169
0.25379488 0.06432903 0.27326393 0.18814303 0.12069678 0.2783198 0.2766521 0.22791322
0.315071 0.32884768 0.11929791 0.33939853 0.3515269 0.027002476 0.2071599 0.29720086
00000000: f5b6 bd3e becd a73d 38ce f03e c7a6 023f
00000010: 5dbc 3f3e 1bf0 863e 6d84 f23e 27c6 013f
00000020: 7131 513e 63d2 373e 6008 f03e 36a9 693d
00000030: 4bc0 e23e c153 a23e 0c95 c83e 63a3 df3e
00000040: 7da4 373e d4d6 493e ba26 0a3e 3eea 44be
00000050: 0f83 3cbc 8101 493d 1616 903d b887 8f3d
00000060: cadf 2e3e 8b10 ae3e 6178 d43e 9c5b 8d3d
00000070: 798c 7b3e ef50 653e e33e 3f3e 3278 e0bc
00000080: 33bd 3dbe ff65 323e fd27 b23e ccaa af3d
00000090: 5a27 b13e 9532 b2bb b3cd a33e 7fe2 41bb
000000a0: d809 a33e 8598 993c 588d 54be d190 0e3b
000000b0: f81a f63d fe96 76be 2ea0 02be aa67 543c
000000c0: 67f1 813e f0be 833d 40e9 8b3e 91a8 403e
000000d0: e02f f73d ef7f 8e3e 58a5 8d3e 1562 693e
000000e0: fc50 a13e b95e a83e 7652 f43d a5c5 ad3e
000000f0: 55fb b33e 4c34 dd3c ba21 543e b62a 983e

encoder_head.0.weight f4 [32, 16]
0.33390337 -0.72453254 0.5762011 -1.0957675 0.65874225 -0.18379433 0.013541636 0.8680803
0.1608672 0.38305476 1.0122917 -0.09392342 -0.50728834 -0.7058144 -0.568647 -0.31241748
-0.34874126 -0.44446775 -1.276202 0.3711829 -0.095426075 -1.082563 1.0702255 -0.1625801
0.6666643 0.021787 0.54182 0.61732686 -0.90219146 1.2553655 -0.45231622 -0.60239726
-0.5005184 0.60871136 -0.3320756 -0.58085907 0.19362387 0.7377973 -0.1401552 0.4900239
0.754146 0.52260804 0.35751846 -0.00083597435 -0.08090051 -0.8692955 -0.2082151 0.8394388
-0.074733295 0.53461635 0.015696257 -0.6828562 -0.021182911 0.20301811 -0.9800951 1.0095556
1.0008512 0.28021047 0.46941152 -0.2525498 0.40742466 -0.16540329 -0.64327574 0.09161877
-0.3648817 0.4109425 0.71647465 0.79846305 0.33241138 -0.890425 -0.042414747 -0.41322714
0.017644495 0.659283 -1.253299 0.19699815 0.871023 -0.25223535 0.35124785 -0.14709543
-0.7941557 0.27340966 0.07472517 0.25979072 0.6098683 0.07336494 0.071918726 0.67529577
-0.24766746 -0.11831229 -0.45304802 0.87598747 -0.11353587 -0.51250654 0.3358579 0.5651915
-0.26636475 -0.17746617 0.37694043 0.8420845 -0.19368613 -1.104255 0.92662776 -0.054231025
-0.028781062 -0.03507305 -0.4038274 -0.24146423 -0.030627513 0.06114374 -0.93431133 -0.4948347
0.4594885 0.05466558 0.87919843 0.27326053 0.58875346 -0.19184276 0.060184985 -0.0023835546
0.29767305 0.58119345 -0.16074996 0.39469886 -0.02082726 -0.41131872 -0.02669302 0.5333153
-0.20961435 0.91758704 0.52367127 0.6970928 0.12488622 -0.89481324 0.46088114 -0.0016328502
0.4638622 0.7350892 -1.0069429 -0.23805755 0.7486425 -0.21205941 0.28560892 0.13073117
0.17587389 0.2853822 0.103382684 0.28731492 -0.33140507 0.19212559 0.4555141 -0.02057462
0.40857083 0.90403605 0.18471159 -0.04798672 -0.32500306 -0.58726007 0.51019627 0.80931324
0.49609 -0.404064 0.8824371 0.6676307 1.1917717 -0.13889167 0.3089283 0.009146509
-0.80774987 0.043770444 0.30502516 0.8380911 0.86242884 0.26266453 -0.46242222 -0.97893643
0.04023 -0.80056864 -0.24146876 0.70515066 -0.64599377 -0.24981247 0.9135311 -0.20690154
0.013917562 0.24242072 0.573158 0.437878 0.8917408 0.5043889 -0.5311276 0.9468382
-0.6988078 0.45788962 0.54827255 -0.16537875 0.9281323 0.68160075 0.5497212 0.060484808
0.67851406 0.6745986 -0.18081486 0.19272625 -0.46567047 -0.74140793 -0.5920649 -0.34293324
-0.14414254 0.42632437 -0.6643775 -0.07168748 1.1252842 -0.85560167 0.64667636 -0.22967003
0.6723341 -0.08910306 -0.1023523 -0.27986854 -0.72086084 0.8143117 -1.2848293 -0.16153973
-0.6073229 -0.44722798 0.47792506 0.38222212 0.29628152 -0.44088596 0.34677675 0.31123167
0.0024493195 -0.5025926 -0.22348121 0.28546873 0.632115 -0.47843504 0.40065667 0.34842733
-0.104042456 0.19888514 0.51512295 0.42243773 0.60118 -0.67055184 0.3577554 -0.15106884
0.22594729 0.44678858 0.26277956 0.48196703 -0.14806484 -0.8523402 0.8801584 -0.27516034
00000000: 62f5 aa3e f77a 39bf ea81 133f 1c42 8cbf
00000010: 55a3 283f 9534 3cbe bddd 5d3c 833a 5e3f
00000020: 5fba 243e c11f c43e c692 813f ec5a c0bd
00000030: a6dd 01bf 41b0 34bf da92 11bf 2ff5 9fbe
00000040: 378e b2be 4791 e3be 965a a3bf af0b be3e
00000050: bf6e c3bd 6d91 8abf 26fd 883f 667b 26be
00000060: 83aa 2a3f a77a b23c b7b4 0a3f 2209 1e3f
00000070: 05f6 66bf d1af a03f fe95 e7be b536 1abf
00000080: f921 00bf 82d4 1b3f d005 aabe 2eb3 14bf
00000090: 5645 463e 49e0 3c3f d884 0fbe 6ae4 fa3e
000000a0: b60f 413f a4c9 053f a90c b73e 4a25 5bba
000000b0: 2baf a5bd 268a 5ebf 5736 55be 76e5 563f
000000c0: c50d 99bd 9edc 083f 7095 803c aacf 2ebf
000000d0: c987 adbc fbe3 4f3e 83e7 7abf 1e39 813f
000000e0: e41b 803f bf77 8f3e b556 f03e 354e 81be
000000f0: f799 d03e 7b5f 29be b8ad 24bf 9fa2 bb3d
00000100: c6d1 babe 0e67 d23e e26a 373f 1368 4c3f
00000110: d331 aa3e e5f2 63bf 16bb 2dbd 8292 d3be
00000120: 308b 903c c5c6 283f 1a6c a0bf e2b9 493e
00000130: 5dfb 5e3f fe24 81be c2d6 b33e 2fa0 16be
00000140: ca4d 4bbf 5afc 8b3e 8309 993d 4a03 853e
00000150: 5420 1c3f 5c40 963d 204a 933d 2fe0 2c3f
00000160: 8a9c 7dbe b74d f2bd e9f5 e7be b740 603f
00000170: 7f85 e8bd a133 03bf 91f5 ab3e 64b0 103f
00000180: f660 88be b1b9 35be 56fe c03e da92 573f
00000190: a855 46be 3a58 8dbf 7a37 6d3f 5a21 5ebd
000001a0: 43c6 ebbc c2a8 0fbd 77c2 cebe 6642 77be
000001b0: 8de6 fabc dc71 7a3d 072f 6fbf f95a fdbe
000001c0: 1442 eb3e 04e9 5f3d 2613 613f cee8 8b3e
000001d0: 8cb8 163f 6e72 44be 8884 763d 6935 1cbb
000001e0: 9a68 983e 18c9 143f a39b 24be f815 ca3e
000001f0: ee9d aabc 5e98 d2be 52ab dabc 5a87 083f
00000200: 25a5 56be fce6 6a3f 520f 063f ac74 323f
00000210: 59c4 ff3d 7b12 65bf 9df8 eb3e 5c05 d6ba
00000220: 597f ed3e ce2e 3c3f 81e3 80bf 5cc5 73be
00000230: 09a7 3f3f 1a26 59be 553b 923e 64de 053e
00000240: 4918 343e 9e1d 923e 4dba d33d f11a 933e
00000250: edad a9be 92bc 443e 2539 e93e 1b8c a8bc
00000260: 3230 d13e e86e 673f 0925 3d3e b98d 44bd
00000270: cd66 a6be ad56 16bf 399c 023f 272f 4f3f
00000280: 82ff fd3e 7ae1 cebe 66e7 613f d8e9 2a3f
00000290: fa8b 983f 9e39 0ebe da2b 9e3e 3ddb 153c
000002a0: b2c8 4ebf a348 333d 422c 9c3e 238d 563f
000002b0: 23c8 5c3f f77b 863e 9bc2 ecbe 949b 7abf
000002c0: 36c8 243d 11f2 4cbf 9643 77be c184 343f
000002d0: d95f 25bf d7ce 7fbe 2ddd 693f ffdd 53be
000002e0: 7c06 643c 233d 783e 7cba 123f 8c31 e03e
000002f0: 2049 643f a21f 013f faf7 07bf fd63 723f
00000300: 11e5 32bf 8270 ea3e 975b 0c3f 0c59 29be
00000310: 149a 6d3f 637d 2e3f 87ba 0c3f ebbe 773d
00000320: 19b3 2d3f 7eb2 2c3f 8827 39be 085a 453e
00000330: 5c6c eebe e9cc 3dbf 9191 17bf f294 afbe
00000340: 1a9a 13be 3047 da3e a514 2abf e3d0 92bd
00000350: 5009 903f b608 5bbf 958c 253f 9f2e 6bbe
00000360: 161e 2c3f aa7b b6bd 159e d1bd ee4a 8fbe
00000370: 568a 38bf bb76 503f 4975 a4bf ac6a 25be
00000380: 8379 1bbf 11fb e4be 98b2 f43e 9eb2 c33e
00000390: 36b2 973e cebb e1be b98c b13e c259 9f3e
000003a0: c384 203b e9a9 00bf 42d8 64be f528 923e
000003b0: 4ad2 213f 70f5 f4be df22 cd3e 1165 b23e
000003c0: 3614 d5bd 8ca8 4b3e 19df 033f c249 d83e
000003d0: efe6 193f 49a9 2bbf b72b b73e cab1 1abe
000003e0: ba5e 673e 79c1 e43e 0b8b 863e 62c4 f63e
000003f0: 4f9e 17be f832 5abf 1052 613f d1e1 8cbe

encoder_head.0.bias f4 [32]
0.3843035 0.90030354 0.10063978 0.108226284 0.21362244 0.14748558 0.45862886 0.20276316
-0.040050246 0.4181546 0.47030228 0.31849605 0.17362434 0.7622727 0.2173027 0.023519073
0.14055108 0.036169805 0.28595865 0.41619095 0.29631343 -0.02138616 0.1802651 0.14980644
0.0046419823 0.032176774 0.064011924 -0.06445228 0.17324074 0.25521845 0.056642313 0.09403573
00000000: 6ec3 c43e 4b7a 663f 3b1c ce3d bea5 dd3d
00000010: d7bf 5a3e 7606 173e 67d1 ea3e 25a1 4f3e
00000020: ba0b 24bd 5c18 d63e 76cb f03e ea11 a33e
00000030: 94ca 313e 4e24 433f 9984 5e3e 12ab c03c
00000040: 9fec 0f3e ca26 143d 2c69 923e fb16 d53e
00000050: 65b6 973e 0732 afbc 6a97 383e dc66 193e
00000060: c51b 983b cbcb 033d af18 833d 8fff 83bd
00000070: 0566 313e feab 823e c501 683d ce95 c03d

encoder_head.2.weight f4 [57, 32]
-0.22271037 -0.36448577 -0.48202926 -0.4434625 -0.47979632 -0.16429198 -0.19102311 -0.2596397
-0.27337444 0.008752564 -0.6875036 -0.4016953 -0.28799838 -0.5912598 -0.2697178 -0.04354926
-0.19359495 -0.33417428 -0.12754004 0.004286259 -0.4795758 -0.11563652 -0.29519048 -0.4175944
-0.121143386 -0.45884424 -0.16304609 -0.41189972 -0.25240678 -0.12160933 -0.2850674 -0.32360184
0.1352628 -0.9199189 0.26899806 0.012538078 -0.41340297 0.6124679 -0.93742585 -0.09881231
0.06631048 -0.04151863 -1.0565284 -0.28315955 -0.106469795 -0.9321203 0.3587244 0.07330724
-0.4893845 0.5380936 -0.28964448 -0.070243046 -1.5046948 0.36940986 -0.09261465 0.32511422
0.3537901 0.3191886 0.46164417 0.42840114 -0.047497038 0.25881025 0.47456378 0.385086
-0.30330124 -0.6318419 -0.49460205 -0.51366687 -0.29313746 -0.1851042 -0.28105253 -0.282238
-0.12633736 -0.044611897 -0.5626374 -0.36661968 -0.46590975 -0.36179605 -0.2218949 -0.21811576
-0.2707627 -0.10118338 -0.36858493 -0.25266284 -0.55322903 -0.22870201 -0.26698163 -0.3326765
-0.27804384 -0.29744518 -0.1769941 -0.3958222 -0.13895448 -0.24230023 -0.058065224 -0.3607872
0.5119842 0.19857652 -0.023067338 0.21343671 -1.0108231 -1.3222191 0.30432725 -0.8508186
-0.34470737 -0.13028714 -0.22408736 -0.22501978 0.38125053 0.2368261 -0.40367913 -0.5154219
0.16365843 -0.41367194 -0.46503317 -0.4888036 0.32617423 -0.30425265 0.013119315 -0.85640144
0.20032878 -0.58755195 -0.45421824 -0.5184301 0.35470992 -0.39130977 -0.89628065 -0.54157716
0.4897372 -0.11098623 -0.6252399 -0.14146823 0.5093827 -0.17044619 0.42346868 0.023056543
0.36315805 -0.039006516 0.29046506 0.34305063 -0.5003892 -0.2170034 0.14557892 0.1913942
0.07396287 0.055600643 -0.38101628 0.35513204 0.11112869 0.084062584 0.07955225 -0.12693112
-0.20425081 -0.40696102 0.3661826 0.104828626 -0.047146656 -0.21076712 0.13110383 -0.5148559
0.19646752 0.026637243 -0.15527098 -0.43000042 0.39262384 0.49911627 -0.33209348 0.03921275
-0.12355057 -0.32141787 0.5919108 -0.7801137 0.28021705 -0.0881421 0.13551712 -0.37747672
-0.008664465 -1.1504174 -0.1556975 0.116468035 0.07776372 -0.5640918 -0.44073105 -0.3605823
-0.5913116 0.14275838 0.1134457 -0.2710497 -0.042948302 0.36495787 0.16807327 0.5163125
-0.4855375 -0.07366688 -0.16755754 -0.40684134 0.123914845 0.10833174 -0.24159275 0.33534274
0.18066692 0.21969067 0.26833522 0.35418585 -0.0048366487 -0.12351854 0.15050486 0.11297694
-0.017229 -0.0071467045 -0.2592867 0.24417119 0.28268766 0.44263932 0.020730091 0.35862842
-0.22747047 0.15454581 -0.14655024 0.41604626 -0.29552197 -0.020105582 0.28509584 -0.9598683
0.30230805 -0.1184821 0.19153726 0.21238948 -0.6131458 0.032208644 -0.0069066803 0.06953065
-0.107981324 -0.18143478 0.49863914 -0.2825216 0.4059237 -0.1380908 0.005928788 0.3129593
0.030040856 0.047738068 -0.09686751 -0.7297528 0.5783459 -0.28889388 0.10478769 0.042464208
0.15331507 0.12786856 -0.25104624 0.30221465 0.21075219 0.047716845 -0.24248958 0.016051779
00000000: 300e 64be e19d babe 8acc f6be 840d e3be
00000010: dda7 f5be 283c 28be 909b 43be 7fef 84be
00000020: bcf7 8bbe ea66 0f3c 3c00 30bf 02ab cdbe
00000030: 8674 93be cd5c 17bf 7418 8abe b560 32bd
00000040: c13d 46be e418 abbe db99 02be bf73 8c3b
00000050: f68a f5be d7d2 ecbd 3523 97be efce d5be
00000060: 061a f8bd a2ed eabe 8ef5 26be 85e4 d2be
00000070: 763b 81be 500e f9bd 5bf4 91be 24af a5be
00000080: 5582 0a3e ce7f 6bbf 1dba 893e 836c 4d3c
00000090: 8ea9 d3be b2ca 1c3f 24fb 6fbf 1c5e cabd
000000a0: cacd 873d 700f 2abd 533c 87bf 4afa 90be
000000b0: d60c dabd 709f 6ebf b9aa b73e 1b22 963d
000000c0: 9b90 fabe 81c0 093f 484c 94be 96db 8fbd
000000d0: d799 c0bf 4a23 bd3e c0ac bdbd 5f75 a63e
000000e0: fa23 b53e b06c a33e a05c ec3e 6557 db3e
000000f0: 418c 42bd c782 843e 06fa f23e fe29 c53e
00000100: 4d4a 9bbe 64c0 21bf 7b3c fdbe ac7f 03bf
00000110: 1d16 96be f58b 3dbe 1ee6 8fbe 8081 90be
00000120: 955e 01be f7ba 36bd 0109 10bf 93b5 bbbe
00000130: b98b eebe 553d b9be 6b38 63be bd59 5fbe
00000140: 69a1 8abe 3b39 cfbd 2ab7 bcbe 065d 81be
00000150: 6ba0 0dbf dc30 6abe d1b1 88be 9354 aabe
00000160: c35b 8ebe bc4a 98be f13d 35be 35a9 cabe
00000170: 154a 0ebe 8d1d 78be cdd5 6dbd 1ab9 b8be
00000180: 6611 033f a557 4b3e b7f7 bcbc 278f 5a3e
00000190: a762 81bf 7a3e a9bf c8d0 9b3e 3fcf 59bf
000001a0: 7c7d b0be fe69 05be 2877 65be 966b 66be
000001b0: 4533 c33e 8b82 723e 08af cebe b1f2 03bf
000001c0: 1396 273e cfcc d3be d418 eebe 7744 fabe
000001d0: 4f00 a73e 01c7 9bbe 65f2 563c 203d 5bbf
000001e0: fd22 4d3e ce69 16bf 4b8f e8be d6b7 04bf
000001f0: 8a9c b53e c159 c8be a672 65bf cda4 0abf
00000200: d6be fa3e c04c e3bd b90f 20bf 0cdd 10be
00000210: e866 023f 7289 2ebe e3d0 d83e 13e1 bc3c
00000220: daef b93e 4cc5 1fbd d6b7 943e 55a4 af3e
00000230: 8219 00bf 2436 5ebe a412 153e d7fc 433e
00000240: d879 973d 80bd 633d 9114 c3be ded3 b53e
00000250: 7097 e33d 0129 ac3d 4aec a23d 3bfa 01be
00000260: 2027 51be 325d d0be 497c bb3e 64b0 d63d
00000270: da1c 41bd 56d3 57be 1540 063e 99cd 03bf
00000280: c82e 493e 5936 da3c 5bff 1ebe 0429 dcbe
00000290: fe05 c93e 2b8c ff3e 2808 aabe 8c9d 203d
000002a0: 1508 fdbd e290 a4be 7787 173f 88b5 47bf
000002b0: 9c78 8f3e d883 b4bd 00c5 0a3e a144 c1be
000002c0: 66f5 0dbc e140 93bf 2a6f 1fbe cb86 ee3d
000002d0: 9642 9f3d 5268 10bf 80a7 e1be 3e9e b8be
000002e0: 3260 17bf 412f 123e 3856 e83d 07c7 8abe
000002f0: 8fea 2fbd c2db ba3e 661b 2c3e 0e2d 043f
00000300: 5f98 f8be a9de 96bd 3494 2bbe 824d d0be
00000310: 11c7 fd3d 08dd dd3d 1764 77be 0bb2 ab3e
00000320: c000 393e 97f6 603e 3c63 893e d957 b53e
00000330: c07c 9ebb 4af7 fcbd f21d 1a3e 7460 e73d
00000340: d523 8dbc e72e eabb 3ac1 84be 0308 7a3e
00000350: 70bc 903e 9fa1 e23e 27d2 a93c 259e b73e
00000360: 05ee 68be 4241 1e3e 4411 16be 0404 d53e
00000370: a84e 97be 76b4 a4bc 15f8 913e eeb9 75bf
00000380: 1fc8 9a3e bea6 f2bd 5822 443e a17c 593e
00000390: 20f7 1cbf 36ed 033d 6f51 e2bb 1666 8e3d
000003a0: 5025 ddbd 0aca 39be a14d ff3e aca6 90be
000003b0: 3bd5 cf3e ad67 0dbe 4746 c23b 343c a03e
000003c0: 3e18 f63c fe88 433d 7962 c6bd 14d1 3abf
000003d0: 7a0e 143f e6e9 93be ee9a d63d f3ee 2d3d
000003e0: a0fe 1c3e faef 023e 2289 80be e1bb 9a3e
000003f0: 6ccf 573e bd72 433d 304f 78be 057f 833c

encoder_head.2.bias f4 [57]
-0.14347921 -0.33313078 -0.26830438 -0.14070228 -0.01224723 0.12918226 -0.061205417 -0.32084796
0.27502924 -0.19071898 0.0007767514 0.25838163 0.054870997 0.1471956 0.2000164 -0.0016308019
-0.09235036 0.16660653 0.08197692 -0.23325334 0.24001704 0.06678068 -0.12008868 -0.03232216
0.12987912 0.061813932 0.037982706 0.02747283 -0.008406529 -0.13224429 0.10076346 -0.10321423
0.020468777 0.0510706 -0.040512674 -0.06296941 -0.053028136 0.071940675 -0.06201983 -0.08008339
-0.062908836 0.03410957 0.1539813 -0.12236068 0.3268129 -0.06769834 -0.025934082 -0.052461993
0.06407947 0.014613793 0.3224104 0.2371167 0.012756618 0.13062738 0.028487505 -0.2000724
-0.071257256
00000000: 37ec 12be 1e90 aabe 315f 89be 4214 10be
00000010: 9ba8 48bc 5b48 043e 88b2 7abd 2f46 a4be
00000020: a2d0 8c3e d64b 43be e79e 4b3a 994a 843e
00000030: 69c0 603d 72ba 163e 19d1 4c3e a2c0 d5ba
00000040: 2f22 bdbd e79a 2a3e 84e3 a73d f7d9 6ebe
00000050: 07c7 753e 4fc4 883d 0ef1 f5bd 3e64 04bd
00000060: 08ff 043e 9b30 7d3d c193 1b3d b30e e13c
00000070: 8abb 09bc 0c6b 07be 135d ce3d fb61 d3bd
00000080: 23ae a73c 682f 513d 9ef0 25bd 1bf6 80bd
00000090: 0834 59bd a255 933d 8108 7ebd c302 a4bd
000000a0: 59d6 80bd 7ab6 0b3d 46ad 1d3e 3c98 fabd
000000b0: 0554 a73e 6da5 8abd b673 d4bc 63e2 56bd
000000c0: 193c 833d b16e 6f3c fa12 a53e b8ce 723e
000000d0: 2201 513c 2fc3 053e a15e e93c c7df 4cbe
000000e0: 53ef 91bd

word_emb.weight f4 [977, 100]
-0.30839118 0.9255455 0.5741329 0.25261122 1.1275729 -0.34643084 -1.512381 -2.1801775
-1.6757749 1.0976517 -1.1743903 0.5842076 0.44509426 -0.45953688 -1.265021 0.47724953
-0.7777652 -0.992617 2.2304277 -2.1978717 2.1220636 0.6313075 0.34445354 0.4730146
0.09867597 -1.2524202 -0.40324202 0.5546251 -0.067400664 -0.4801235 -1.0467767 0.76816344
-0.3725514 -0.55004585 -0.17749193 -0.5971904 0.6702585 -0.48690912 0.2966894 -1.125918
0.47754976 -2.4933796 0.17182913 0.8649271 -0.37696275 0.0049148654 -0.2446745 0.58020574
0.49720275 -1.3519038 0.50378466 0.3095084 -0.88174766 -0.4533923 -2.2630348 2.753328
-0.570623 0.8628918 0.20779072 -0.3334036 -0.025725609 -0.72516507 0.536255 1.8617322
0.2340275 -0.043406844 0.33244035 0.014452581 -0.15020211 0.19511005 -0.9864622 -2.328493
0.76019174 -0.78673255 -1.2225531 -0.7510995 1.7322876 1.0691087 0.8954327 0.49738553
0.94387007 0.92529 -0.6461018 -0.9391352 1.1482116 -0.6447413 1.1517133 -0.5817901
0.1796174 -1.3680639 -0.12973136 -1.2700287 1.7214863 -0.5215888 -1.1213261 0.45713127
-0.16774894 -0.9649827 0.3725085 0.63250524 0.83803904 -1.0745882 0.6239744 0.4061192
-0.5441298 -1.4125627 2.9365656 -2.592268 0.05783679 1.767227 0.07328317 -0.4771977
-0.37669337 -0.21436018 -0.21335375 -1.138405 0.39917496 1.1898681 -0.41749674 -0.13151719
1.3186775 -0.5237716 -0.8438399 0.66083527 1.3588586 2.165408 -0.46763968 1.6083237
1.1359797 0.48282364 -2.3999271 2.0913374 1.1296107 0.71841836 1.3414333 1.6003675
-1.3681464 -0.76628304 -0.17897059 0.5981305 0.9596768 2.994418 1.2370597 -0.5572892
-0.45698 1.3353587 -1.0216385 0.9096789 1.1272899 1.894597 -0.35515606 0.3028858
-0.0065839514 -2.0008686 1.2119329 1.7548896 -1.1531453 -0.7654081 0.3671906 -1.4969369
-1.1804129 -0.02966027 -1.4219702 -0.0840159 1.7443544 0.8089501 -1.7191596 -0.6297994
1.4360332 -0.17958178 -0.48147842 -0.60426664 -1.0375248 -1.1810746 0.1433599 0.16656972
-0.0805046 -0.93840843 0.37423417 2.5015473 0.2912112 0.39099383 0.62932795 -1.1316617
0.12009069 0.1346557 -0.46672252 -1.6168061 0.88666093 -0.01671124 -0.3083589 0.56980044
-0.9299581 -0.044804666 -0.68502045 0.7074917 0.08611386 0.3014497 1.707124 0.90067494
0.0 0.0 0.0 0.0 0.0 0.0 0.0 0.0
0.0 0.0 0.0 0.0 0.0 0.0 0.0 0.0
0.0 0.0 0.0 0.0 0.0 0.0 0.0 0.0
0.0 0.0 0.0 0.0 0.0 0.0 0.0 0.0
0.0 0.0 0.0 0.0 0.0 0.0 0.0 0.0
0.0 0.0 0.0 0.0 0.0 0.0 0.0 0.0
0.0 0.0 0.0 0.0 0.0 0.0 0.0 0.0
00000000: 73e5 9dbe 8df0 6c3f 60fa 123f 4256 813e
00000010: 4f54 903f 625f b1be b395 c1bf 0788 0bc0
00000020: cb7f d6bf da7f 8c3f 6c52 96bf a18e 153f
00000030: 65e3 e33e 6b48 ebbe 35ec a1bf 0d5a f43e
00000040: 9f1b 47bf 261c 7ebf 54bf 0e40 eea9 0cc0
00000050: e4cf 0740 5e9d 213f 375c b03e f82e f23e
00000060: a116 ca3d 4e4f a0bf bd75 cebe e9fb 0d3f
00000070: 5c09 8abd bfd2 f5be c7fc 85bf 5ca6 443f
00000080: 0fbf bebe cecf 0cbf 72c0 35be 78e1 18bf
00000090: 1096 2b3f 274c f9be ace7 973e 151e 90bf
000000a0: 6781 f43e 8893 1fc0 faf3 2f3e dd6b 5d3f
000000b0: 4301 c1be e10c a13b f48b 7abe 5d88 143f
000000c0: 5c91 fe3e 2f0b adbf 08f8 003f e377 9e3e
000000d0: 37ba 61bf 0923 e8be 90d5 10c0 8736 3040
000000e0: 5914 12bf 7ae6 5c3f 17c7 543e e0b3 aabe
000000f0: 83be d2bc 6ba4 39bf 0248 093f 3e4d ee3f
00000100: e8a4 6f3e 60cb 31bd 9f35 aa3e 85ca 6c3c
00000110: 95ce 19be eeca 473e c988 7cbf 0806 15c0
00000120: ed9b 423f 4e67 49bf 9f7c 9cbf 0f48 40bf
00000130: 9abb dd3f 8ed8 883f 143b 653f 51a9 fe3e
00000140: 78a1 713f cedf 6c3f ed66 25bf 2a6b 70bf
00000150: 99f8 923f c40d 25bf 576b 933f 32f0 14bf
00000160: a0ed 373e b81c afbf 4cd8 04be 4d90 a2bf
00000170: aa59 dc3f d886 05bf 9d87 8fbf 1c0d ea3e
00000180: 61c6 2bbe 1b09 77bf 6fb9 be3e ddeb 213f
00000190: ba89 563f 1b8c 89bf c9bc 1f3f dbee cf3e
000001a0: 174c 0bbf dbce b4bf b1f0 3b40 b8e7 25c0
000001b0: 45e6 6c3d 7f34 e23f 7d15 963d 4253 f4be
000001c0: f4dd c0be 3c81 5bbe 6879 5abe 41b7 91bf
000001d0: a960 cc3e 994d 983f 22c2 d5be 71ac 06be
000001e0: 6dca a83f e515 06bf e405 58bf 802c 293f
000001f0: 14ef ad3f 0b96 0a40 786e efbe 8ddd cd3f
00000200: c867 913f a934 f73e 6898 19c0 79d8 0540
00000210: 1597 903f 44ea 373f 16b4 ab3f d8d8 cc3f
00000220: 6c1f afbf 202b 44bf 1144 37be 151f 193f
00000230: 61ad 753f 8ba4 3f40 f957 9e3f 81aa 0ebf
00000240: 48f9 e9be 09ed aa3f 0dc5 82bf b7e0 683f
00000250: 094b 903f 2882 f23f 04d7 b5be d913 9b3e
00000260: 30be d7bb 3b0e 00c0 9e20 9b3f 39a0 e03f
00000270: 449a 93bf c9f1 43bf 6800 bc3e a19b bfbf
00000280: c517 97bf 18fa f2bc 1f03 b6bf 8710 acbd
00000290: 0147 df3f 5b17 4f3f 6c0d dcbf 893a 21bf
000002a0: f0cf b73f 49e4 37be 5784 f6be 38b1 1abf
000002b0: 9dcd 84bf 742d 97bf f0cc 123e 4191 2a3e
000002c0: 99df a4bd 893b 70bf 9f9b bf3e 5a19 2040
000002d0: a219 953e 5830 c83e a31b 213f 4ada 90bf
000002e0: 1cf2 f53d 2fe3 093e 41f6 eebe 81f3 cebf
000002f0: 36fc 623f 03e6 88bc 38e1 9dbe 71de 113f
00000300: bc11 6ebf 1985 37bd 805d 2fbf 2d1e 353f
00000310: 775c b03d 9d57 9a3e 0a83 da3f a292 663f
00000320: 0000 0000 0000 0000 0000 0000 0000 0000
00000330: 0000 0000 0000 0000 0000 0000 0000 0000
00000340: 0000 0000 0000 0000 0000 0000 0000 0000
00000350: 0000 0000 0000 0000 0000 0000 0000 0000
00000360: 0000 0000 0000 0000 0000 0000 0000 0000
00000370: 0000 0000 0000 0000 0000 0000 0000 0000
00000380: 0000 0000 0000 0000 0000 0000 0000 0000
00000390: 0000 0000 0000 0000 0000 0000 0000 0000
000003a0: 0000 0000 0000 0000 0000 0000 0000 0000
000003b0: 0000 0000 0000 0000 0000 0000 0000 0000
000003c0: 0000 0000 0000 0000 0000 0000 0000 0000
000003d0: 0000 0000 0000 0000 0000 0000 0000 0000
000003e0: 0000 0000 0000 0000 0000 0000 0000 0000
000003f0: 0000 0000 0000 0000 0000 0000 0000 0000

decoder.weight_ih_l0 f4 [64, 100]
0.017949171 0.23449767 0.23204276 -0.02050506 0.47647762 0.31211612 0.06968829 -0.16640261
-0.34392273 0.35544884 -0.60594213 0.043938134 0.6700461 0.17015234 -0.26730794 0.07996066
0.34789056 -0.28515327 -0.11662719 -0.3583068 -0.08046482 0.3455158 0.3330424 0.26531616
-0.089430735 -0.42501113 -0.5781557 0.18144369 -0.22275898 0.08112082 -0.34413093 0.03461807
0.014986882 -0.11386317 -0.17914708 -0.16932343 -0.083475195 0.19753592 -0.10623397 0.15730207
0.026843857 -0.10614422 0.40983817 -0.24114387 0.395414 0.18794398 0.14830409 0.05209903
-0.08605056 -0.115715325 -0.60980093 -0.37458757 0.44389325 0.24648342 -0.52531165 -0.06895852
-0.66186655 -0.41988295 -0.07669222 0.16127968 0.39208335 -0.089675546 -0.023960784 -0.12784375
0.34932426 0.4101672 -0.046646703 0.040594157 -0.0522073 0.6218742 0.17996827 -0.2489623
0.02837305 0.14714208 -0.42215127 -0.14971915 -0.4395716 0.0156423 -0.09246172 -0.40141895
-0.05547946 0.069059424 -0.18402138 -0.1054713 -0.07899753 -0.4058444 -0.12770109 -0.38120395
0.37738407 -0.30223128 0.25549242 -0.36305103 0.20981063 0.13828842 0.10217439 0.16375357
0.09990053 -0.40321958 0.2595267 0.055863235 -0.035938315 0.5800303 -0.17386593 -0.025630025
0.45915285 0.4035702 0.3177268 -0.14529207 -0.13639003 0.21784538 0.20564643 0.017358512
0.18024217 0.06173857 -0.038945634 0.119298026 -0.1199995 -0.28728145 0.39209315 -0.29900715
0.12540899 0.23560151 -0.23207162 0.13737713 0.26816386 0.26702866 -0.36736247 -0.021192508
-0.06898573 0.19386666 -0.1947204 0.08364713 0.60975754 -0.16670476 0.21606757 0.57754546
0.2682262 0.80343884 -0.054299943 -0.16039455 0.0483 -0.43601274 -0.17759529 0.09686557
0.25260538 0.08072162 -0.49454722 -0.12101035 -0.34835362 0.33134064 0.1969664 -0.0182865
-0.32986277 0.17245245 0.14609711 -0.42269537 -0.24331756 0.22915189 0.034767527 -0.089177445
0.0728355 0.41205764 -0.30203116 -0.48413324 0.18904991 0.04293203 0.35503253 -0.07238303
0.24688263 0.07002521 -0.2512669 -0.32520288 0.32528874 -0.26015568 0.14608432 -0.30487058
0.030724252 0.4174186 -0.24268156 -0.41182768 0.44258898 -0.6974267 0.34577185 -0.1157011
-0.61333436 -0.28458464 -0.019557377 0.21804398 -0.27443442 -0.6961249 -0.037525933 -0.040771324
0.41907144 -0.1832154 0.11184087 0.046109293 -0.5528493 -0.46419263 0.06824625 0.14816166
-0.16088638 0.11993547 -0.16127719 0.105973564 0.10442179 0.5895921 -0.24803281 -0.3384183
-0.2964751 0.30671448 -0.108325735 -0.14168647 0.25877035 0.3021578 -0.47483855 0.15347326
-0.087707445 -0.07680794 0.13332757 -0.035603415 0.10913437 0.24025433 0.37753603 0.0046711103
-0.34406585 -0.13209276 -0.4738379 0.23157889 -0.13803442 0.31411582 -0.052808076 0.23303542
-0.006064375 -0.2279848 0.20718588 0.2227215 0.0724333 0.2110872 -0.059148498 0.22781648
-0.21195756 -0.16214316 -0.10754472 0.16995716 0.18127084 0.16458742 0.20499344 -0.069440804
0.33179253 -0.13211186 -0.47191486 -0.30590513 0.056264527 -0.08287119 -0.06911381 -0.040577248
00000000: 240a 933c 2820 703e 9e9c 6d3e 3afa a7bc
00000010: e0f4 f33e afcd 9f3e bcb8 8e3d 7265 2abe
00000020: a416 b0be 64fd b53e 061f 1bbf 79f8 333d
00000030: 2488 2b3f 6a3c 2e3e 96dc 88be 6ac2 a33d
00000040: b61e b23e 9cff 91be 3cda eebd fd73 b7be
00000050: bdca a4bd 72e7 b03e 8984 aa3e 85d7 873e
00000060: 7627 b7bd 0f9b d9be 0302 14bf 60cc 393e
00000070: ee1a 64be ac22 a63d ee31 b0be adcb 0d3d
00000080: 8a8b 753c 1831 e9bd 5572 37be 1f63 2dbe
00000090: 0bf5 aabd db46 4a3e 3291 d9bd cb13 213e
000000a0: a6e7 db3c 2462 d9bd 4fd6 d13e 6bee 76be
000000b0: b473 ca3e 6374 403e 07dd 173e cb65 553d
000000c0: 473b b0bd 28fc ecbd ea1b 1cbf f1c9 bfbe
000000d0: fa45 e33e 2666 7c3e d37a 06bf 203a 8dbd
000000e0: 1670 29bf e6fa d6be d010 9dbd 8026 253e
000000f0: 26bf c83e d0a7 b7bd 6849 c4bc 79e9 02be
00000100: a1da b23e 6f01 d23e 9d10 3fbd 0f46 263d
00000110: 52d7 55bd 2633 1f3f 9a49 383e f9ef 7ebe
00000120: 996e e83c 6aac 163e 3624 d8be fa4f 19be
00000130: 870f e1be 4824 803c 925c bdbd c986 cdbe
00000140: 6e3e 63bd 076f 8d3d 1a70 3cbe 5601 d8bd
00000150: 75c9 a1bd d6ca cfbe 13c4 02be 2a2d c3be
00000160: 7c38 c13e 0fbe 9abe e7cf 823e d3e1 b9be
00000170: 99d8 563e 7b9b 0d3e ce40 d13d 04af 273e
00000180: a698 cc3d cc72 cebe afe0 843e d9d0 643d
00000190: 0e34 13bd de7c 143f e909 32be 0ff6 d1bc
000001a0: 1516 eb3e c1a0 ce3e 16ad a23e 72c7 14be
000001b0: d4a9 0bbe dc12 5f3e fa94 523e 7033 8e3c
000001c0: 6791 383e 95e1 7c3d 7585 1fbd 8652 f43d
000001d0: 4cc2 f5bd 8e16 93be 6fc0 c83e 7717 99be
000001e0: 376b 003e 8641 713e 2fa4 6dbe 97ac 0c3e
000001f0: c64c 893e fbb7 883e ef16 bcbe e99b adbc
00000200: 6448 8dbd fb84 463e c964 47be 304f ab3d
00000210: 1219 1c3f a7b4 2abe d140 5d3e 05da 133f
00000220: f254 893e 2bae 4d3f 9e69 5ebd 783e 24be
00000230: 39d6 453d 103d dfbe 8adb 35be 7561 c63d
00000240: 7e55 813e 6051 a53d 4b35 fdbe 46d4 f7bd
00000250: 685b b2be 7ba5 a93e 8fb1 493e 92cd 95bc
00000260: c6e3 a8be 6097 303e 7b9a 153e 876b d8be
00000270: 3d28 79be cba6 6a3e 6568 0e3d aaa2 b6bd
00000280: c72a 953d 38f9 d23e d4a3 9abe 50e0 f7be
00000290: 4d96 413e 7fd9 2f3d d3c6 b53e 8e3d 94bd
000002a0: cdce 7c3e 6169 8f3d 0ea6 80be fe80 a6be
000002b0: 3f8c a63e 2033 85be 2197 153e ff17 9cbe
000002c0: 6db1 fb3c e4b7 d53e 8481 78be 14db d2be
000002d0: 069b e23e 8e8a 32bf 0209 b13e b3f4 ecbd
000002e0: 7b03 1dbf 14b5 91be cb36 a0bc ec46 5f3e
000002f0: ab82 8cbe 3e35 32bf cbb4 19bd d5ff 26bd
00000300: 8890 d63e d19c 3bbe d30c e53d 19dd 3c3d
00000310: 8887 0dbf a8aa edbe b1c4 8b3d b1b7 173e
00000320: 66bf 24be baa0 f53d d925 25be ab08 d93d
00000330: 17db d53d 82ef 163f 50fc 7dbe 2a45 adbe
00000340: 96cb 97be ae09 9d3e e2d9 ddbd 4216 11be
00000350: 8c7d 843e 6db4 9a3e 0a1e f3be 1828 1d3e
00000360: f69f b3bd 7b4d 9dbd 0687 083e e3d4 11bd
00000370: d781 df3d 3b05 763e 674c c13e 1d10 993b
00000380: 6629 b0be 5343 07be e29a f2be 0423 6d3e
00000390: e558 0dbe cad3 a03e 484d 58bd d6a0 6e3e
000003a0: aab7 c6bb d974 69be 8928 543e 1b11 643e
000003b0: e957 943d 3e27 583e b245 72bd b948 693e
000003c0: 670b 59be db08 26be 6840 dcbd 4009 2e3e
000003d0: 109f 393e 9b89 283e cde9 513e fb36 8ebd
000003e0: b6e0 a93e 5548 07be d39e f1be 999f 9cbe
000003f0: a275 663d 5fb8 a9bd 8b8b 8dbd 5434 26bd
